model/model300.pkl (torch_old, 18864 bytes, 6 tensors)

weight f4 [30, 1]
0	0xbe6821f7	-0.22669207
1	0xc04f80f8	-3.2422466
2	0xbdfd9c94	-0.123833805
3	0xbf5a6b9f	-0.85320467
4	0x3f74d8c8	0.9564328
5	0xbe8595a5	-0.26090732
6	0x4076902f	3.8525503
7	0xbf09c7e8	-0.5382066
8	0x403b36fc	2.925231
9	0x40000c67	2.000757
10	0xbdfd65f2	-0.1237296
11	0xbe16f3c6	-0.1474143
12	0xbf7f74fe	-0.9978789
13	0xbfa4e37c	-1.2881923
14	0x3f51dce1	0.8197766
15	0x3f6263d2	0.88433564
16	0xbdc42aac	-0.095784515
17	0x3eadeefb	0.3397139
18	0x40257924	2.5855188
19	0x3fb00b8b	1.3753523
20	0xc00ccbfc	-2.1999502
21	0xbf2fce86	-0.68674505
22	0x3f48351f	0.78206056
23	0xbff43085	-1.9077307
24	0xbfa4118e	-1.2817857
25	0xbe1e4825	-0.15457208
26	0xbeb88f1d	-0.36046687
27	0xbfc6ab55	-1.5521036
28	0xbffc3baa	-1.9705708
29	0x4001b526	2.0266814

bias f4 [30]
0	0x00000000	0.0
1	0x00000000	0.0
2	0x00000000	0.0
3	0x00000000	0.0
4	0xbedc6e91	-0.43053105
5	0x00000000	0.0
6	0xbe10a8f1	-0.14126946
7	0x00000000	0.0
8	0xbeb5ff35	-0.3554627
9	0xbf0e8ce5	-0.5568374
10	0x3f25e403	0.64801043
11	0x00000000	0.0
12	0x00000000	0.0
13	0x00000000	0.0
14	0x3eb7ba5a	0.35884362
15	0xbea5591a	-0.32294542
16	0x00000000	0.0
17	0x3f003220	0.50076485
18	0xbeee94d8	-0.46597934
19	0x3ef7db66	0.48409575
20	0x00000000	0.0
21	0x00000000	0.0
22	0xbe9d0bfd	-0.3067321
23	0x00000000	0.0
24	0x00000000	0.0
25	0x3ee26e5f	0.4422483
26	0x00000000	0.0
27	0x00000000	0.0
28	0x00000000	0.0
29	0xbcd2c013	-0.025726354

weight f4 [30, 30]
0	0x3ec9ff95	0.39452806
1	0xbd738c55	-0.059460003
2	0xbdd97c65	-0.106194295
3	0xbea757eb	-0.32684264
4	0xbe269506	-0.16267785
5	0x3ec54289	0.38527325
6	0x3e1dcbec	0.15409821
7	0xbe9246bc	-0.2856959
8	0xba266743	-0.00063477847
9	0x3e1fe957	0.15616356
10	0xbe421aad	-0.18955489
11	0x3cb2c791	0.021823676
12	0x3e2c27fb	0.16812126
13	0x3d9a36bf	0.07529973
14	0xbebf780b	-0.37396273
15	0xbdbc04a7	-0.09180575
16	0xbbebdcc7	-0.0071979496
17	0x3ed47ff1	0.41503862
18	0xbe23f035	-0.160096
19	0xbce83db8	-0.028349742
20	0x3d5f1e08	0.054472
21	0x3dff22a9	0.12457783
22	0xbe1da1f5	-0.15393813
23	0x3cdfcd52	0.027319584
24	0x3ce8f2f0	0.028436154
25	0x3e8a6f94	0.27038252
26	0xbe84e75a	-0.25957757
27	0xbc3fdfa1	-0.011711032
28	0xbe0b4262	-0.13599542
29	0xbf0e8092	-0.5566493
30	0xbe17d3dd	-0.14826913
31	0xbcca47c2	-0.02469242
32	0x3d7dcadc	0.06196104
33	0xbe8ed826	-0.27899283
34	0x3e01d64e	0.12679407
35	0xbcbef5d4	-0.02331058
36	0x3f1681cb	0.587918
37	0x3e1a1792	0.15048054
38	0x3dd36c1d	0.10323355
39	0xbd1a0539	-0.037602637
40	0x3e2980ba	0.16553012
41	0xbd254b44	-0.040354982
42	0xbcb2fa5b	-0.021847894
43	0xbd9795f0	-0.07401645
44	0x3debc70d	0.11512575
45	0x3e47d73a	0.19515696
46	0x3deaa0fd	0.11456487
47	0x3e287489	0.16450705
48	0xbf0e0858	-0.5548148
49	0x3e4e0916	0.20120654
50	0x3ed27a96	0.4110915
51	0x3ebccdf5	0.36875883
52	0xbe5fc781	-0.21853448
53	0x3da2d7f8	0.07951349
54	0x3eb9d60b	0.36296114
55	0x3e7b52d8	0.24543321
56	0x3e564219	0.20923652
57	0xbe2b6c8d	-0.16740628
58	0xbf0f73a3	-0.5603582
59	0x3e63d8bb	0.22250645
60	0x3e4fba54	0.20285922
61	0xbe274862	-0.16336206
62	0xbe2fc6fe	-0.17165753
63	0xbc53aefc	-0.0129201375
64	0xbeb9976f	-0.36248347
65	0xbe00d5b6	-0.12581524
66	0x3e7ce860	0.24698019
67	0xbe8cac5f	-0.2747526
68	0xbdd734f9	-0.105081506
69	0x3da9e2c5	0.08295206
70	0xbc0336b0	-0.008008644
71	0xbe420e1f	-0.189507
72	0xbe8cb73c	-0.27483547
73	0x3e5c5201	0.21515657
74	0xbea3cffd	-0.3199462
75	0x3e8e5ff5	0.27807584
76	0x3e8c1131	0.27356866
77	0x3d4a5f71	0.049407426
78	0xbdfefb34	-0.12450257
79	0xbd822686	-0.06355004
80	0xbe2548ec	-0.16141099
81	0xbda228f5	-0.07917968
82	0xbe23c34b	-0.15992467
83	0xbecaa942	-0.39582258
84	0xbd151dac	-0.03640525
85	0xbe538312	-0.20655468
86	0x3d2007dd	0.03907
87	0xbd88293b	-0.06648489
88	0x3de9b393	0.11411204
89	0xbebdb41b	-0.37051472
90	0xbe7cf2d4	-0.24702007
91	0xbef6f61a	-0.48234636
92	0x3d602472	0.054722257
93	0x3d09f0f6	0.033677064
94	0xbe6d0d44	-0.23149592
95	0x3ebc6df1	0.3680263
96	0x3cfc80d3	0.030823147
97	0xbedccc27	-0.43124506
98	0xbe4f4ae4	-0.20243412
99	0xbdbef1dc	-0.09323475
100	0xbe1ad420	-0.15119982
101	0xbd386ad9	-0.045023773
102	0xbec535a2	-0.3851748
103	0x3c69d3c3	0.014271679
104	0xbeb79f60	-0.3586378
105	0x3e11f53c	0.14253706
106	0x3ea757e8	0.32684255
107	0xbd890645	-0.06690649
108	0xbe5041ce	-0.20337602
109	0xbd0940e9	-0.03350917
110	0x3e68316b	0.22675101
111	0x3dc348f8	0.09535402
112	0xbe6aef1e	-0.22942778
113	0x3eac7d5b	0.3368939
114	0xbef94099	-0.48682097
115	0xbcafff3b	-0.021484008
116	0xbe3e5677	-0.18587671
117	0x3dd853b2	0.105628386
118	0xbcbbb135	-0.022911647
119	0xbdd2db5d	-0.102957465
120	0x3dd9bcf3	0.10631742
121	0xbde50ef2	-0.11184491
122	0x3e1aa037	0.1510018
123	0xbe1a2b40	-0.15055561
124	0x3d22423a	0.03961394
125	0xbee16323	-0.44020948
126	0xbea41740	-0.32048988
127	0xbf201b4a	-0.6254164
128	0x3f1f4c34	0.6222565
129	0xbf233fed	-0.6376942
130	0x3e8ced5f	0.2752485
131	0xbe9f141b	-0.31070027
132	0x3b89a9f1	0.004201167
133	0xbe51931c	-0.20466274
134	0xbeb8fc0f	-0.36129805
135	0xbd2a4c81	-0.041576866
136	0x3f0eb0d0	0.55738544
137	0x3ef1a20c	0.47193944
138	0xbd7166e8	-0.05893603
139	0x3f062654	0.52402234
140	0x3ecf4a1a	0.40486223
141	0xbd9a7229	-0.075413056
142	0x3a6e55bf	0.00090917567
143	0x3e96b450	0.29434443
144	0x3d15b1ab	0.03654639
145	0x3db93ee1	0.09045196
146	0x3e964365	0.29348293
147	0xbdeb3385	-0.11484436
148	0x3da18cb8	0.07888168
149	0xbe6f5371	-0.23371674
150	0xbd8fe6ae	-0.070264205
151	0x3ecee5c9	0.40409687
152	0xbd0fc04d	-0.0350955
153	0xbe1aeeb2	-0.15130118
154	0xbe7600b3	-0.24023704
155	0x3cfd793c	0.030941598
156	0x3d9ee843	0.07759144
157	0x3dafb52d	0.085794784
158	0xbe2e6c02	-0.17033389
159	0xbec7cd13	-0.39023647
160	0xbdd95709	-0.10612304
161	0xbe3b31a4	-0.18280655
162	0x3d990b85	0.074729
163	0xbe9a09e4	-0.3008567
164	0xbd508a4d	-0.050913144
165	0x3e35a9ab	0.17740504
166	0xbe7fe5eb	-0.2499005
167	0x3de83bd7	0.113395385
168	0xbe35ee83	-0.17766766
169	0xbe4a5d13	-0.19762067
170	0x3e01fed7	0.1269487
171	0xbe7531bd	-0.23944755
172	0x3e8b6005	0.27221695
173	0x3eb6f58d	0.35734215
174	0xbe4f322a	-0.2023398
175	0x3e75ff78	0.24023235
176	0x3e6df0e5	0.23236425
177	0xbe69970e	-0.22811529
178	0x3e983eb9	0.29735354
179	0x3d123b13	0.03570087
180	0xbee54ed9	-0.44786718
181	0xbe542b02	-0.20719531
182	0x3eecb653	0.46232852
183	0xbc575b0a	-0.013144264
184	0x3e5020da	0.20325032
185	0xbe2db79f	-0.16964577
186	0x3dca580a	0.09880073
187	0xbebbd8e7	-0.3668892
188	0xbe201abe	-0.15635201
189	0xbefc07f5	-0.4922482
190	0x3f8af00b	1.0854505
191	0x3e12bffa	0.14331046
192	0x3eef6ba8	0.46761823
193	0xbe3fe12d	-0.18738241
194	0x3d660a67	0.056162264
195	0xbf0d68cd	-0.5523804
196	0xbe299eb9	-0.16564454
197	0x3ee041c9	0.4380019
198	0xbec27aee	-0.37984413
199	0xbe813f2e	-0.25243515
200	0xbdbc3d28	-0.09191352
201	0x3eb11586	0.34586734
202	0xbf144025	-0.57910377
203	0xbced8dfe	-0.028998371
204	0x3efa8bab	0.48934683
205	0x3f389a6d	0.72110635
206	0xbc7ce63d	-0.015435752
207	0xbd993db1	-0.0748247
208	0x3e6c68c7	0.23086844
209	0xbe067fe6	-0.13134727
210	0x3d62a605	0.05533411
211	0x3e8ea128	0.27857327
212	0xbe289e31	-0.16466595
213	0xbeaa8910	-0.33307695
214	0x3da26f51	0.07931388
215	0x3e88d4a5	0.26724735
216	0xbd248f5f	-0.04017579
217	0xbc29a7ce	-0.010354949
218	0xbce0107e	-0.027351614
219	0xbe447211	-0.19184138
220	0x3e02832f	0.12745355
221	0xbeb290a4	-0.34875977
222	0x3e76cd5f	0.2410178
223	0x3e96dccc	0.2946533
224	0xbee26175	-0.4421498
225	0xbf358adf	-0.70915025
226	0xbdda4c72	-0.10659112
227	0xbe375928	-0.17905104
228	0xbeca3a8b	-0.3949779
229	0x3c08e8fc	0.008356329
230	0x3e19b561	0.15010597
231	0x3e0e7e7f	0.13915442
232	0xbeacea65	-0.3377258
233	0x3ddf0dee	0.10891329
234	0xbeb5bd2b	-0.35495886
235	0xbe18310b	-0.14862458
236	0xbe559441	-0.20857336
237	0xbe7a1ea0	-0.24425745
238	0x3e87ed03	0.26548013
239	0x3b810aff	0.0039380784
240	0xbee3a29e	-0.44460005
241	0xbe86453e	-0.26224703
242	0xbd6ad920	-0.057335973
243	0xbd420b3b	-0.04737399
244	0x3d037119	0.03209028
245	0x3dacc757	0.084364586
246	0x3ea5655b	0.3230389
247	0x3de1e873	0.11030664
248	0xbdf0a2cd	-0.11749802
249	0xbf7871a1	-0.97048384
250	0x3f858e07	1.0433968
251	0xbf18fba6	-0.59758985
252	0x3e4c046f	0.19923566
253	0xbe52983e	-0.20565888
254	0xbe41ca3b	-0.18924801
255	0xbeb90d73	-0.36143073

bias f4 [30]
0	0xbd75fc16	-0.06005486
1	0x3e9fe887	0.31232092
2	0x00000000	0.0
3	0x00000000	0.0
4	0x3ea1882b	0.315492
5	0x00000000	0.0
6	0x3f069f04	0.5258639
7	0x00000000	0.0
8	0x3f0748f4	0.5284569
9	0xbeb551aa	-0.35413867
10	0xbd971e05	-0.07378773
11	0xbe889459	-0.2667568
12	0xbe15aa1a	-0.1461567
13	0xbdf8edaf	-0.121547095
14	0xbe9a3535	-0.3011872
15	0xbe9162d6	-0.28395718
16	0xbd9a8d6a	-0.07546504
17	0xbeb7a762	-0.3586989
18	0xbceb5d3b	-0.02873098
19	0xbe68bb5d	-0.22727723
20	0x00000000	0.0
21	0x3f095220	0.5364094
22	0x3f098ec4	0.5373347
23	0xbe95323a	-0.29139882
24	0x00000000	0.0
25	0x3eb70651	0.35747007
26	0x3ea387a7	0.31939432
27	0xbd75cd9d	-0.06001054
28	0x00000000	0.0
29	0x00000000	0.0

weight f4 [2, 30]
0	0xbe332e2f	-0.17498086
1	0x3e60bebe	0.21947762
2	0xbdb73b43	-0.0894685
3	0xbdee1b5c	-0.11626312
4	0xbce575a4	-0.028010197
5	0x3d4414b7	0.047871318
6	0x3cef7e3a	0.029234994
7	0xbd86176b	-0.065474354
8	0x3fa2bb82	1.2713473
9	0xbe2b5df1	-0.16735055
10	0xbd3609ae	-0.044442825
11	0xbea22341	-0.31667522
12	0xbec6c64e	-0.3882317
13	0xbd047464	-0.03233756
14	0xbed0e4b4	-0.40799487
15	0xbf35c50a	-0.7100378
16	0xbc55b0ca	-0.013042638
17	0xbe5aaeb4	-0.21355706
18	0xbbd4e52a	-0.006497045
19	0xbf5a2d39	-0.85225254
20	0x3e983dcb	0.29734644
21	0x3f196b56	0.59929407
22	0x3fb1667d	1.3859402
23	0xbf364361	-0.7119656
24	0xbea82a4e	-0.32844776
25	0x3fa2a0b1	1.2705289
26	0x3e9abed1	0.30223706
27	0xbd50d74e	-0.05098658
28	0xbe704c58	-0.23466623
29	0x3d9a9597	0.07548063
30	0xbec6a277	-0.38795826
31	0xbd6ffbd8	-0.058589786
32	0x3d0e25b6	0.034703933
33	0x3c33adfc	0.010966774
34	0xbeeb4bae	-0.45956177
35	0xbdcf0cc5	-0.101098575
36	0xbf10e32f	-0.56596655
37	0x3bcc8b45	0.006242188
38	0xbf5ef9ed	-0.87100106
39	0x3e42f18a	0.19037452
40	0xbd8f5b16	-0.06999795
41	0x3f4febf1	0.81219393
42	0xbdd8a77e	-0.105788216
43	0x3e6499e2	0.22324327
44	0x3ed70251	0.41993955
45	0x3ebacd73	0.3648487
46	0xbd9fb3a5	-0.07797936
47	0x3ebdf6bb	0.37102303
48	0xbdf33f66	-0.11877327
49	0x3f143bca	0.5790373
50	0xbcba27f5	-0.022724131
51	0xbf23a46d	-0.6392277
52	0xbf92bf80	-1.1464691
53	0x3eb37079	0.35046747
54	0xbe2a32bf	-0.1662092
55	0xbf846f4b	-1.0346464
56	0xbd94c520	-0.07264161
57	0xbece8bf2	-0.40341145
58	0xbe818fdb	-0.25305066
59	0x3db16154	0.08661142

bias f4 [2]
0	0x3ea328e0	0.31867123
1	0xbea328da	-0.31867105
