model/model400.pkl (torch_old, 18864 bytes, 6 tensors)

weight f4 [30, 1]
-0.22669207 -3.2422466 -0.123833805 -0.85320467 0.9692458 -0.26090732 3.855423 -0.5382066
2.9344716 2.0177941 -0.14309394 -0.1474143 -0.9978789 -1.2881923 0.816761 0.8986582
-0.095784515 0.33328736 2.5972176 1.372042 -2.1999502 -0.68674505 0.7935102 -1.9077307
-1.2817857 -0.16768679 -0.36046687 -1.5521036 -1.9705708 2.0454104
00000000: f721 68be f880 4fc0 949c fdbd 9f6b 5abf
00000010: 7e20 783f a595 85be 40bf 7640 e8c7 09bf
00000020: 62ce 3b40 8a23 0140 3887 12be c6f3 16be
00000030: fe74 7fbf 7ce3 a4bf 4017 513f 770e 663f
00000040: ac2a c4bd a4a4 aa3e d038 2640 129f af3f
00000050: fccb 0cc0 86ce 2fbf 7c23 4b3f 8530 f4bf
00000060: 8e11 a4bf 16b6 2bbe 1d8f b8be 55ab c6bf
00000070: aa3b fcbf 01e8 0240

bias f4 [30]
0.0 0.0 0.0 0.0 -0.44764084 0.0 -0.15778148 0.0
-0.361675 -0.5699648 0.665613 0.0 0.0 0.0 0.36243045 -0.3321755
0.0 0.51017076 -0.47573256 0.48982897 0.0 0.0 -0.31820536 0.0
0.0 0.45638174 0.0 0.0 0.0 -0.033415332
00000000: 0000 0000 0000 0000 0000 0000 0000 0000
00000010: 2e31 e5be 0000 0000 7891 21be 0000 0000
00000020: 772d b9be 37e9 11bf 9d65 2a3f 0000 0000
00000030: 0000 0000 0000 0000 7c90 b93e e812 aabe
00000040: 0000 0000 8d9a 023f 3893 f3be ddca fa3e
00000050: 0000 0000 0000 0000 d0eb a2be 0000 0000
00000060: 0000 0000 deaa e93e 0000 0000 0000 0000
00000070: 0000 0000 84de 08bd

weight f4 [30, 30]
0.39452806 -0.059460003 -0.106194295 -0.32684264 -0.16267785 0.38527325 0.15409821 -0.2856959
-0.00063477847 0.15616356 -0.18955489 0.021823676 0.16812126 0.07529973 -0.37396273 -0.09180575
-0.0071979496 0.41503862 -0.160096 -0.028349742 0.054472 0.12457783 -0.15393813 0.027319584
0.028436154 0.27038252 -0.25957757 -0.011711032 -0.13599542 -0.5566493 -0.14826913 -0.02469242
0.06196104 -0.27899283 0.12393486 -0.02331058 0.58672184 0.15048054 0.10177052 -0.039465
0.1698932 -0.040354982 -0.021847894 -0.07401645 0.11482384 0.1925726 0.11456487 0.1653183
-0.5564206 0.20072229 0.4110915 0.36875883 -0.22175509 0.07951349 0.36296114 0.249485
0.20923652 -0.16740628 -0.5603582 0.22114895 0.20285922 -0.16336206 -0.17165753 -0.0129201375
-0.36248347 -0.12581524 0.24698019 -0.2747526 -0.105081506 0.08295206 -0.008008644 -0.189507
-0.27483547 0.21515657 -0.3199462 0.27807584 0.27356866 0.049407426 -0.12450257 -0.06355004
-0.16141099 -0.07917968 -0.15992467 -0.39582258 -0.03640525 -0.20655468 0.03907 -0.06648489
0.11411204 -0.37051472 -0.24702007 -0.48234636 0.054722257 0.033677064 -0.23149592 0.3680263
0.030823147 -0.43124506 -0.20243412 -0.09323475 -0.15119982 -0.045023773 -0.3851748 0.014271679
-0.3586378 0.14253706 0.32684255 -0.06690649 -0.20337602 -0.03350917 0.22675101 0.09535402
-0.22942778 0.3368939 -0.48682097 -0.021484008 -0.18587671 0.105628386 -0.022911647 -0.102957465
0.10631742 -0.11184491 0.1510018 -0.15055561 0.034833256 -0.44020948 -0.32247853 -0.6254164
0.61982065 -0.64079857 0.2825806 -0.31070027 0.004201167 -0.20466274 -0.36179966 -0.04589905
0.55738544 0.47329092 -0.061611135 0.5232183 0.40486223 -0.075413056 -0.0044860165 0.29434443
0.03654639 0.097337775 0.29348293 -0.11484436 0.07888168 -0.23597607 -0.070264205 0.40409687
-0.0350955 -0.15130118 -0.24023704 0.030941598 0.07759144 0.085794784 -0.17033389 -0.39023647
-0.10612304 -0.18280655 0.074729 -0.3008567 -0.050913144 0.17740504 -0.2499005 0.113395385
-0.17766766 -0.19762067 0.1269487 -0.23944755 0.27221695 0.35734215 -0.2023398 0.24023235
0.23236425 -0.22811529 0.29735354 0.03570087 -0.44786718 -0.20719531 0.46232852 -0.013144264
0.18159981 -0.16964577 0.09380096 -0.3668892 -0.1639371 -0.50458777 1.119261 0.14331046
0.46761823 -0.18738241 0.06079755 -0.5706821 -0.16564454 0.45324564 -0.38913643 -0.24886446
-0.09191352 0.34586734 -0.6018234 -0.028998371 0.48934683 0.75749314 -0.015435752 -0.0748247
0.23086844 -0.13649026 0.05533411 0.27857327 -0.16466595 -0.33307695 0.07931388 0.26724735
-0.04017579 -0.010354949 -0.027351614 -0.19184138 0.12745355 -0.34875977 0.2410178 0.2946533
-0.4421498 -0.70915025 -0.10659112 -0.17905104 -0.3949779 0.008356329 0.15010597 0.13915442
-0.3377258 0.10891329 -0.35495886 -0.14862458 -0.20857336 -0.24425745 0.26548013 0.0039380784
-0.44460005 -0.26224703 -0.057335973 -0.04737399 -0.00201928 0.084364586 0.31019264 0.11030664
-0.1337925 -0.99209833 1.0749695 -0.59758985 0.19923566 -0.20565888 -0.19176534 -0.39213163
00000000: 95ff c93e 558c 73bd 657c d9bd eb57 a7be
00000010: 0695 26be 8942 c53e eccb 1d3e bc46 92be
00000020: 4367 26ba 57e9 1f3e ad1a 42be 91c7 b23c
00000030: fb27 2c3e bf36 9a3d 0b78 bfbe a704 bcbd
00000040: c7dc ebbb f17f d43e 35f0 23be b83d e8bc
00000050: 081e 5f3d a922 ff3d f5a1 1dbe 52cd df3c
00000060: f0f2 e83c 946f 8a3e 5ae7 84be a1df 3fbc
00000070: 6242 0bbe 9280 0ebf ddd3 17be c247 cabc
00000080: dcca 7d3d 26d8 8ebe 8fd1 fd3d d4f5 bebc
00000090: 6733 163f 9217 1a3e 106d d03d 0da6 21bd
000000a0: 7cf8 2d3e 444b 25bd 5bfa b2bc f095 97bd
000000b0: c328 eb3d c031 453e fda0 ea3d 3349 293e
000000c0: 9571 0ebf 258a 4d3e 967a d23e f5cd bc3e
000000d0: c413 63be f8d7 a23d 0bd6 b93e ff78 7f3e
000000e0: 1942 563e 8d6c 2bbe a373 0fbf df74 623e
000000f0: 54ba 4f3e 6248 27be fec6 2fbe fcae 53bc
00000100: 6f97 b9be b6d5 00be 60e8 7c3e 5fac 8cbe
00000110: f934 d7bd c5e2 a93d b036 03bc 1f0e 42be
00000120: 3cb7 8cbe 0152 5c3e fdcf a3be f55f 8e3e
00000130: 3111 8c3e 715f 4a3d 34fb febd 8626 82bd
00000140: ec48 25be f528 a2bd 4bc3 23be 42a9 cabe
00000150: ac1d 15bd 1283 53be dd07 203d 3b29 88bd
00000160: 93b3 e93d 1bb4 bdbe d4f2 7cbe 1af6 f6be
00000170: 7224 603d f6f0 093d 440d 6dbe f16d bc3e
00000180: d380 fc3c 27cc dcbe e44a 4fbe dcf1 bebd
00000190: 20d4 1abe d96a 38bd a235 c5be c3d3 693c
000001a0: 609f b7be 3cf5 113e e857 a73e 4506 89bd
000001b0: ce41 50be e940 09bd 6b31 683e f848 c33d
000001c0: 1eef 6abe 5b7d ac3e 9940 f9be 3bff afbc
000001d0: 7756 3ebe b253 d83d 35b1 bbbc 5ddb d2bd
000001e0: f3bc d93d f20e e5bd 37a0 1a3e 402b 1abe
000001f0: 51ad 0e3d 2363 e1be e81b a5be 4a1b 20bf
00000200: 91ac 1e3f 600b 24bf 68ae 903e 1b14 9fbe
00000210: f1a9 893b 1c93 51be ce3d b9be a400 3cbd
00000220: d0b0 0e3f 3053 f23e f55b 7cbd a2f1 053f
00000230: 1a4a cf3e 2972 9abd 6fff 92bb 50b4 963e
00000240: abb1 153d 0759 c73d 6543 963e 8533 ebbd
00000250: b88c a13d b6a3 71be aee6 8fbd c9e5 ce3e
00000260: 4dc0 0fbd b2ee 1abe b300 76be 3c79 fd3c
00000270: 43e8 9e3d 2db5 af3d 026c 2ebe 13cd c7be
00000280: 0957 d9bd a431 3bbe 850b 993d e409 9abe
00000290: 4d8a 50bd aba9 353e ebe5 7fbe d73b e83d
000002a0: 83ee 35be 135d 4abe d7fe 013e bd31 75be
000002b0: 0560 8b3e 8df5 b63e 2a32 4fbe 78ff 753e
000002c0: e5f0 6d3e 0e97 69be b93e 983e 133b 123d
000002d0: d94e e5be 022b 54be 53b6 ec3e 0a5b 57bc
000002e0: 4df5 393e 9fb7 2dbe b81a c03d e7d8 bbbe
000002f0: 21df 27be aa2c 01bf f243 8f3f fabf 123e
00000300: a86b ef3e 2de1 3fbe da06 793d 3918 12bf
00000310: b99e 29be d00f e83e e43c c7be 53d6 7ebe
00000320: 283d bcbd 8615 b13e 1911 1abf fe8d edbc
00000330: ab8b fa3e 12eb 413f 3de6 7cbc b13d 99bd
00000340: c768 6c3e 1ac4 0bbe 05a6 623d 28a1 8e3e
00000350: 319e 28be 1089 aabe 516f a23d a5d4 883e
00000360: 5f8f 24bd cea7 29bc 7e10 e0bc 1172 44be
00000370: 2f83 023e a490 b2be 5fcd 763e ccdc 963e
00000380: 7561 e2be df8a 35bf 724c dabd 2859 37be
00000390: 8b3a cabe fce8 083c 61b5 193e 7f7e 0e3e
000003a0: 65ea acbe ee0d df3d 2bbd b5be 0b31 18be
000003b0: 4194 55be a01e 7abe 03ed 873e ff0a 813b
000003c0: 9ea2 e3be 3e45 86be 20d9 6abd 3b0b 42bd
000003d0: e655 04bb 57c7 ac3d 92d1 9e3e 73e8 e13d
000003e0: e700 09be 28fa 7dbf 9a98 893f a6fb 18bf
000003f0: 6f04 4c3e 3e98 52be 225e 44be 7ac5 c8be

bias f4 [30]
-0.06005486 0.31282365 0.0 0.0 0.31634617 0.0 0.5369126 0.0
0.54249066 -0.35565707 -0.07378749 -0.26801017 -0.1461567 -0.121547095 -0.30285046 -0.28516936
-0.07546504 -0.36219004 -0.02873098 -0.2288167 0.0 0.54363304 0.5604436 -0.2922777
0.0 0.3589909 0.31998727 -0.060009684 0.0 0.0
00000000: 16fc 75bd 6c2a a03e 0000 0000 0000 0000
00000010: 20f8 a13e 0000 0000 1b73 093f 0000 0000
00000020: abe0 0a3f af18 b6be e51d 97bd a138 89be
00000030: 1aaa 15be afed f8bd 370f 9bbe b801 92be
00000040: 6a8d 9abd f970 b9be 3b5d ebbc ed4e 6abe
00000050: 0000 0000 892b 0b3f 3b79 0f3f 6ca5 95be
00000060: 0000 0000 a8cd b73e 5fd5 a33e b7cc 75bd
00000070: 0000 0000 0000 0000

weight f4 [2, 30]
-0.17498086 0.21922305 -0.0894685 -0.11626312 -0.024729647 0.047871318 0.040213473 -0.065474354
1.3324487 -0.17108676 -0.044442825 -0.3244625 -0.3882317 -0.03233756 -0.4175501 -0.7181006
-0.013042638 -0.22287662 -0.006497045 -0.86306065 0.29734644 0.6144447 1.4574381 -0.7167234
-0.32844776 1.2835104 0.30245423 -0.05098658 -0.23466623 0.07548063 -0.38795826 -0.05833551
0.034703933 0.010966774 -0.46284282 -0.101098575 -0.5769464 0.006242188 -0.9321086 0.19411068
-0.070000604 0.8199811 -0.105788216 0.22324327 0.42949468 0.37291127 -0.07797936 0.3803425
-0.11877327 0.5898454 -0.022724131 -0.65437955 -1.2179732 0.3552246 -0.1662092 -1.0476291
-0.072858945 -0.40341145 -0.25305066 0.08661142
00000000: 2f2e 33be 027c 603e 433b b7bd 5c1b eebd
00000010: d495 cabc b714 443d e2b6 243d 6b17 86bd
00000020: ae8d aa3f 5e31 2fbe ae09 36bd f31f a6be
00000030: 4ec6 c6be 6474 04bd 20c9 d5be 71d5 37bf
00000040: cab0 55bc c539 64be 2ae5 d4bb 8bf1 5cbf
00000050: cb3d 983e 3f4c 1d3f 558d ba3f 2f7b 37bf
00000060: 4e2a a8be 124a a43f 48db 9a3e 4ed7 50bd
00000070: 584c 70be 9795 9a3d 77a2 c6be 37f1 6ebd
00000080: b625 0e3d fcad 333c bcf9 ecbe c50c cfbd
00000090: c2b2 13bf 458b cc3b ab9e 6ebf f3c4 463e
000000a0: 7a5c 8fbd 48ea 513f 7ea7 d8bd e299 643e
000000b0: bae6 db3e 3aee be3e a5b3 9fbd 41bc c23e
000000c0: 663f f3bd 1c00 173f f527 babc 6b85 27bf
000000d0: 8ce6 9bbf 00e0 b53e bf32 2abe b618 86bf
000000e0: 1237 95bd f28b cebe db8f 81be 5461 b13d

bias f4 [2]
0.3191812 -0.31918123
00000000: b86b a33e b96b a3be
