model/model200.pkl (torch_old, 18864 bytes, 6 tensors)

weight f4 [30, 1]
0	0xbe6821f7	-0.22669207
1	0xc04f80f8	-3.2422466
2	0xbdfd9c94	-0.123833805
3	0xbf5a6b9f	-0.85320467
4	0x3f6fdc89	0.93695885
5	0xbe8595a5	-0.26090732
6	0x407649f5	3.848264
7	0xbf09c7e8	-0.5382066
8	0x403a4db8	2.9109936
9	0x3ffcc5a2	1.9747813
10	0xbdc12f85	-0.09432892
11	0xbe16f3c6	-0.1474143
12	0xbf7f74fe	-0.9978789
13	0xbfa4e37c	-1.2881923
14	0x3f53276a	0.82482016
15	0x3f5cdc9d	0.8627413
16	0xbdc42aac	-0.095784515
17	0x3eb318a3	0.34979734
18	0x40245373	2.5675933
19	0x3fb0ca45	1.3811728
20	0xc00ccbfc	-2.1999502
21	0xbf2fce86	-0.68674505
22	0x3f43c0cd	0.76466066
23	0xbff43085	-1.9077307
24	0xbfa4118e	-1.2817857
25	0xbe09fc88	-0.1347524
26	0xbeb88f1d	-0.36046687
27	0xbfc6ab55	-1.5521036
28	0xbffc3baa	-1.9705708
29	0x3fffdda3	1.9989513

bias f4 [30]
0	0x00000000	0.0
1	0x00000000	0.0
2	0x00000000	0.0
3	0x00000000	0.0
4	0xbecef037	-0.40417644
5	0x00000000	0.0
6	0xbded8e67	-0.11599427
7	0x00000000	0.0
8	0xbeb0e70d	-0.34551278
9	0xbf09386a	-0.53601706
10	0x3f1ecda6	0.62032545
11	0x00000000	0.0
12	0x00000000	0.0
13	0x00000000	0.0
14	0x3eb4c04f	0.3530297
15	0xbe9e081f	-0.3086557
16	0x00000000	0.0
17	0x3ef8b768	0.48577428
18	0xbee6a2d4	-0.45046103
19	0x3ef33abf	0.47505757
20	0x00000000	0.0
21	0x00000000	0.0
22	0xbe93e1d9	-0.28883246
23	0x00000000	0.0
24	0x00000000	0.0
25	0x3ed7073b	0.41997704
26	0x00000000	0.0
27	0x00000000	0.0
28	0x00000000	0.0
29	0xbc5c5d54	-0.0134499855

weight f4 [30, 30]
0	0x3ec9ff95	0.39452806
1	0xbd738c55	-0.059460003
2	0xbdd97c65	-0.106194295
3	0xbea757eb	-0.32684264
4	0xbe269506	-0.16267785
5	0x3ec54289	0.38527325
6	0x3e1dcbec	0.15409821
7	0xbe9246bc	-0.2856959
8	0xba266743	-0.00063477847
9	0x3e1fe957	0.15616356
10	0xbe421aad	-0.18955489
11	0x3cb2c791	0.021823676
12	0x3e2c27fb	0.16812126
13	0x3d9a36bf	0.07529973
14	0xbebf780b	-0.37396273
15	0xbdbc04a7	-0.09180575
16	0xbbebdcc7	-0.0071979496
17	0x3ed47ff1	0.41503862
18	0xbe23f035	-0.160096
19	0xbce83db8	-0.028349742
20	0x3d5f1e08	0.054472
21	0x3dff22a9	0.12457783
22	0xbe1da1f5	-0.15393813
23	0x3cdfcd52	0.027319584
24	0x3ce8f2f0	0.028436154
25	0x3e8a6f94	0.27038252
26	0xbe84e75a	-0.25957757
27	0xbc3fdfa1	-0.011711032
28	0xbe0b4262	-0.13599542
29	0xbf0e8092	-0.5566493
30	0xbe17d3dd	-0.14826913
31	0xbcca47c2	-0.02469242
32	0x3d7dcadc	0.06196104
33	0xbe8ed826	-0.27899283
34	0x3e06a24f	0.13147853
35	0xbcbef5d4	-0.02331058
36	0x3f17010d	0.5898598
37	0x3e1a1792	0.15048054
38	0x3dd8583f	0.105637066
39	0xbd0d74ad	-0.0345351
40	0x3e220764	0.15823132
41	0xbd254b44	-0.040354982
42	0xbcb2fa5b	-0.021847894
43	0xbd9795f0	-0.07401645
44	0x3deca4be	0.115548596
45	0x3e4c2df1	0.199394
46	0x3deaa0fd	0.11456487
47	0x3e26f6ca	0.1630508
48	0xbf0d5b1c	-0.55217147
49	0x3e4ec764	0.20193249
50	0x3ed27a96	0.4110915
51	0x3ebccdf5	0.36875883
52	0xbe5a62a8	-0.21326697
53	0x3da2d7f8	0.07951349
54	0x3eb9d60b	0.36296114
55	0x3e746f37	0.2387055
56	0x3e564219	0.20923652
57	0xbe2b6c8d	-0.16740628
58	0xbf0f73a3	-0.5603582
59	0x3e66129f	0.22468041
60	0x3e4fba54	0.20285922
61	0xbe274862	-0.16336206
62	0xbe2fc6fe	-0.17165753
63	0xbc53aefc	-0.0129201375
64	0xbeb9976f	-0.36248347
65	0xbe00d5b6	-0.12581524
66	0x3e7ce860	0.24698019
67	0xbe8cac5f	-0.2747526
68	0xbdd734f9	-0.105081506
69	0x3da9e2c5	0.08295206
70	0xbc0336b0	-0.008008644
71	0xbe420e1f	-0.189507
72	0xbe8cb73c	-0.27483547
73	0x3e5c5201	0.21515657
74	0xbea3cffd	-0.3199462
75	0x3e8e5ff5	0.27807584
76	0x3e8c1131	0.27356866
77	0x3d4a5f71	0.049407426
78	0xbdfefb34	-0.12450257
79	0xbd822686	-0.06355004
80	0xbe2548ec	-0.16141099
81	0xbda228f5	-0.07917968
82	0xbe23c34b	-0.15992467
83	0xbecaa942	-0.39582258
84	0xbd151dac	-0.03640525
85	0xbe538312	-0.20655468
86	0x3d2007dd	0.03907
87	0xbd88293b	-0.06648489
88	0x3de9b393	0.11411204
89	0xbebdb41b	-0.37051472
90	0xbe7cf2d4	-0.24702007
91	0xbef6f61a	-0.48234636
92	0x3d602472	0.054722257
93	0x3d09f0f6	0.033677064
94	0xbe6d0d44	-0.23149592
95	0x3ebc6df1	0.3680263
96	0x3cfc80d3	0.030823147
97	0xbedccc27	-0.43124506
98	0xbe4f4ae4	-0.20243412
99	0xbdbef1dc	-0.09323475
100	0xbe1ad420	-0.15119982
101	0xbd386ad9	-0.045023773
102	0xbec535a2	-0.3851748
103	0x3c69d3c3	0.014271679
104	0xbeb79f60	-0.3586378
105	0x3e11f53c	0.14253706
106	0x3ea757e8	0.32684255
107	0xbd890645	-0.06690649
108	0xbe5041ce	-0.20337602
109	0xbd0940e9	-0.03350917
110	0x3e68316b	0.22675101
111	0x3dc348f8	0.09535402
112	0xbe6aef1e	-0.22942778
113	0x3eac7d5b	0.3368939
114	0xbef94099	-0.48682097
115	0xbcafff3b	-0.021484008
116	0xbe3e5677	-0.18587671
117	0x3dd853b2	0.105628386
118	0xbcbbb135	-0.022911647
119	0xbdd2db5d	-0.102957465
120	0x3dd9bcf3	0.10631742
121	0xbde50ef2	-0.11184491
122	0x3e1aa037	0.1510018
123	0xbe1a2b40	-0.15055561
124	0x3d4197e7	0.047264006
125	0xbee16323	-0.44020948
126	0xbea279e7	-0.3173363
127	0xbf201b4a	-0.6254164
128	0x3f204c5c	0.62616515
129	0xbf21f898	-0.6326995
130	0x3e86cbbb	0.2632731
131	0xbe9f141b	-0.31070027
132	0x3b89a9f1	0.004201167
133	0xbe51931c	-0.20466274
134	0xbeb8a1fa	-0.36061078
135	0xbd0df372	-0.034655996
136	0x3f0eb0d0	0.55738544
137	0x3ef06bc8	0.4695723
138	0xbd5fc9e4	-0.054635897
139	0x3f067394	0.5252011
140	0x3ecf4a1a	0.40486223
141	0xbd9a7229	-0.075413056
142	0x3c1c1ac2	0.009527864
143	0x3e96b450	0.29434443
144	0x3d15b1ab	0.03654639
145	0x3da261e1	0.07928825
146	0x3e964365	0.29348293
147	0xbdeb3385	-0.11484436
148	0x3da18cb8	0.07888168
149	0xbe6bb4f8	-0.23018253
150	0xbd8fe6ae	-0.070264205
151	0x3ecee5c9	0.40409687
152	0xbd0fc04d	-0.0350955
153	0xbe1aeeb2	-0.15130118
154	0xbe7600b3	-0.24023704
155	0x3cfd793c	0.030941598
156	0x3d9ee843	0.07759144
157	0x3dafb52d	0.085794784
158	0xbe2e6c02	-0.17033389
159	0xbec7cd13	-0.39023647
160	0xbdd95709	-0.10612304
161	0xbe3b31a4	-0.18280655
162	0x3d990b85	0.074729
163	0xbe9a09e4	-0.3008567
164	0xbd508a4d	-0.050913144
165	0x3e35a9ab	0.17740504
166	0xbe7fe5eb	-0.2499005
167	0x3de83bd7	0.113395385
168	0xbe35ee83	-0.17766766
169	0xbe4a5d13	-0.19762067
170	0x3e01fed7	0.1269487
171	0xbe7531bd	-0.23944755
172	0x3e8b6005	0.27221695
173	0x3eb6f58d	0.35734215
174	0xbe4f322a	-0.2023398
175	0x3e75ff78	0.24023235
176	0x3e6df0e5	0.23236425
177	0xbe69970e	-0.22811529
178	0x3e983eb9	0.29735354
179	0x3d123b13	0.03570087
180	0xbee54ed9	-0.44786718
181	0xbe542b02	-0.20719531
182	0x3eecb653	0.46232852
183	0xbc575b0a	-0.013144264
184	0x3e72892e	0.23685142
185	0xbe2db79f	-0.16964577
186	0x3dda7374	0.10666552
187	0xbebbd8e7	-0.3668892
188	0xbe13ae91	-0.1442206
189	0xbef209a2	-0.47272974
190	0x3f84344d	1.0328461
191	0x3e12bffa	0.14331046
192	0x3eef6ba8	0.46761823
193	0xbe3fe12d	-0.18738241
194	0x3d47ef86	0.04881241
195	0xbf060fe3	-0.5236799
196	0xbe299eb9	-0.16564454
197	0x3ed3fc90	0.41403627
198	0xbebae841	-0.3650532
199	0xbe841f8d	-0.2580532
200	0xbdbc3d28	-0.09191352
201	0x3eb11586	0.34586734
202	0xbf0b33e4	-0.54376054
203	0xbced8dfe	-0.028998371
204	0x3efa8bab	0.48934683
205	0x3f2a2f6f	0.6647863
206	0xbc7ce63d	-0.015435752
207	0xbd993db1	-0.0748247
208	0x3e6c68c7	0.23086844
209	0xbdfca01d	-0.12335227
210	0x3d62a605	0.05533411
211	0x3e8ea128	0.27857327
212	0xbe289e31	-0.16466595
213	0xbeaa8910	-0.33307695
214	0x3da26f51	0.07931388
215	0x3e88d4a5	0.26724735
216	0xbd248f5f	-0.04017579
217	0xbc29a7ce	-0.010354949
218	0xbce0107e	-0.027351614
219	0xbe447211	-0.19184138
220	0x3e02832f	0.12745355
221	0xbeb290a4	-0.34875977
222	0x3e76cd5f	0.2410178
223	0x3e96dccc	0.2946533
224	0xbee26175	-0.4421498
225	0xbf358adf	-0.70915025
226	0xbdda4c72	-0.10659112
227	0xbe375928	-0.17905104
228	0xbeca3a8b	-0.3949779
229	0x3c08e8fc	0.008356329
230	0x3e19b561	0.15010597
231	0x3e0e7e7f	0.13915442
232	0xbeacea65	-0.3377258
233	0x3ddf0dee	0.10891329
234	0xbeb5bd2b	-0.35495886
235	0xbe18310b	-0.14862458
236	0xbe559441	-0.20857336
237	0xbe7a1ea0	-0.24425745
238	0x3e87ed03	0.26548013
239	0x3b810aff	0.0039380784
240	0xbee3a29e	-0.44460005
241	0xbe86453e	-0.26224703
242	0xbd6ad920	-0.057335973
243	0xbd420b3b	-0.04737399
244	0x3dab6f2a	0.08370812
245	0x3dacc757	0.084364586
246	0x3eaf41e2	0.34229952
247	0x3de1e873	0.11030664
248	0xbdbdfa93	-0.09276309
249	0xbf7005f2	-0.9375907
250	0x3f7ea25b	0.99466485
251	0xbf18fba6	-0.59758985
252	0x3e4c046f	0.19923566
253	0xbe52983e	-0.20565888
254	0xbe3e9233	-0.18610458
255	0xbea13d88	-0.31492257

bias f4 [30]
0	0xbd75fc16	-0.06005486
1	0x3e9f72bf	0.31142232
2	0x00000000	0.0
3	0x00000000	0.0
4	0x3ea0c4d3	0.31400165
5	0x00000000	0.0
6	0x3f02073f	0.50792307
7	0x00000000	0.0
8	0x3f0160cd	0.5053833
9	0xbeb3f95f	-0.35151193
10	0xbd971e5a	-0.07378836
11	0xbe877574	-0.26456797
12	0xbe15aa1a	-0.1461567
13	0xbdf8edaf	-0.121547095
14	0xbe98bd55	-0.2983195
15	0xbe904dd5	-0.2818438
16	0xbd9a8d6a	-0.07546504
17	0xbeb49be3	-0.35275182
18	0xbceb5d3b	-0.02873098
19	0xbe65fbe2	-0.22459367
20	0x00000000	0.0
21	0x3f064189	0.5244375
22	0x3f003a31	0.50088793
23	0xbe9467a2	-0.28985316
24	0x00000000	0.0
25	0x3eb5b225	0.35487476
26	0x3ea2fd52	0.31833893
27	0xbd75d1e7	-0.06001463
28	0x00000000	0.0
29	0x00000000	0.0

weight f4 [2, 30]
0	0xbe332e2f	-0.17498086
1	0x3e61246e	0.21986553
2	0xbdb73b43	-0.0894685
3	0xbdee1b5c	-0.11626312
4	0xbd0857b6	-0.033286773
5	0x3d4414b7	0.047871318
6	0x3c44a69e	0.012002615
7	0xbd86176b	-0.065474354
8	0x3f96e0bb	1.1787332
9	0xbe2540c5	-0.16137989
10	0xbd3612a1	-0.04445136
11	0xbe9bb634	-0.30412447
12	0xbec6c64e	-0.3882317
13	0xbd047464	-0.03233756
14	0xbec91e89	-0.3928111
15	0xbf3273f6	-0.6970819
16	0xbc55b0ca	-0.013042638
17	0xbe4baf9c	-0.19891208
18	0xbbd4e52a	-0.006497045
19	0xbf55b867	-0.834845
20	0x3e983dcb	0.29734644
21	0x3f1335aa	0.5750376
22	0x3fa35a29	1.276189
23	0xbf344975	-0.70424587
24	0xbea82a4e	-0.32844776
25	0x3f9ff223	1.2495769
26	0x3e9a8d99	0.30186155
27	0xbd50d78a	-0.050986804
28	0xbe704c58	-0.23466623
29	0x3d9a9597	0.07548063
30	0xbec6a277	-0.38795826
31	0xbd7192ae	-0.058977775
32	0x3d0e25b6	0.034703933
33	0x3c33adfc	0.010966774
34	0xbee8981a	-0.45428544
35	0xbdcf0cc5	-0.101098575
36	0xbf0c79e3	-0.54873484
37	0x3bcc8b45	0.006242188
38	0xbf47449e	-0.77839077
39	0x3e3cd45e	0.18440387
40	0xbd8f56c6	-0.069989726
41	0x3f4cb567	0.799643
42	0xbdd8a77e	-0.105788216
43	0x3e6499e2	0.22324327
44	0x3ecf3c24	0.4047557
45	0x3eb42b43	0.35189256
46	0xbd9fb3a5	-0.07797936
47	0x3eb6772e	0.35637802
48	0xbdf33f66	-0.11877327
49	0x3f0fc6f4	0.56162953
50	0xbcba27f5	-0.022724131
51	0xbf1d6ecd	-0.61497194
52	0xbf84b348	-1.0367212
53	0x3eaf7ca4	0.3427478
54	0xbe2a32bf	-0.1662092
55	0xbf81c0c2	-1.013695
56	0xbd940055	-0.07226626
57	0xbece8bf2	-0.40341145
58	0xbe818fdb	-0.25305066
59	0x3db16154	0.08661142

bias f4 [2]
0	0x3ea2b1b1	0.31776193
1	0xbea2b1b0	-0.3177619
