model/model100.pkl (torch_old, 18864 bytes, 6 tensors)

weight f4 [30, 1]
000000 f7 21 68 be f8 80 4f c0 94 9c fd bd 9f 6b 5a bf
       -0.22669207 -3.2422466 -0.123833805 -0.85320467
000010 5e d2 65 3f a5 95 85 be 63 b9 75 40 e8 c7 09 bf
       0.8977412 -0.26090732 3.83944 -0.5382066
000020 65 79 38 40 46 2a f6 3f b2 89 17 bd c6 f3 16 be
       2.8824093 1.9231651 -0.03699655 -0.1474143
000030 fe 74 7f bf 7c e3 a4 bf e5 3b 56 3f 4e 6e 52 3f
       -0.9978789 -1.2881923 0.8368514 0.8219956
000040 ac 2a c4 bd 34 97 be 3e ee f6 21 40 f6 f1 b2 3f
       -0.095784515 0.37224734 2.5306964 1.3980091
000050 fc cb 0c c0 86 ce 2f bf 4a 19 3b 3f 85 30 f4 bf
       -2.1999502 -0.68674505 0.73085463 -1.9077307
000060 8e 11 a4 bf e6 76 c3 bd 1d 8f b8 be 55 ab c6 bf
       -1.2817857 -0.095441625 -0.36046687 -1.5521036
000070 aa 3b fc bf af 92 f9 3f
       -1.9705708 1.9497889

bias f4 [30]
000000 00 00 00 00 00 00 00 00 00 00 00 00 00 00 00 00
       0.0 0.0 0.0 0.0
000010 26 aa b1 be 00 00 00 00 4b 68 83 bd 00 00 00 00
       -0.34700125 0.0 -0.06416377 0.0
000020 cd 99 a4 be ec 8b f9 be 02 76 0e 3f 00 00 00 00
       -0.3214859 -0.48739564 0.55648816 0.0
000030 00 00 00 00 00 00 00 00 7c 46 ad 3e 28 7f 8d be
       0.0 0.0 0.33842838 -0.27636075
000040 00 00 00 00 51 e9 e6 3e 7f 26 d4 be 6d ce e8 3e
       0.0 0.4509988 -0.4143562 0.4546999
000050 00 00 00 00 00 00 00 00 78 c2 7d be 00 00 00 00
       0.0 0.0 -0.24781215 0.0
000060 00 00 00 00 09 eb bc 3e 00 00 00 00 00 00 00 00
       0.0 0.36898068 0.0 0.0
000070 00 00 00 00 20 72 87 3c
       0.0 0.016533911

weight f4 [30, 30]
000000 95 ff c9 3e 55 8c 73 bd 65 7c d9 bd eb 57 a7 be
       0.39452806 -0.059460003 -0.106194295 -0.32684264
000010 4a 94 26 be 89 42 c5 3e a8 cc 1d 3e bc 46 92 be
       -0.16267505 0.38527325 0.15410101 -0.2856959
000020 3c a7 25 ba 13 ea 1f 3e f1 19 42 be 91 c7 b2 3c
       -0.00063191704 0.15616636 -0.18955208 0.021823676
000030 fb 27 2c 3e bf 36 9a 3d ae 77 bf be 2d 03 bc bd
       0.16812126 0.07529973 -0.37395996 -0.09180293
000040 c7 dc eb bb 4e 80 d4 3e 79 ef 23 be b7 37 e8 bc
       -0.0071979496 0.4150414 -0.1600932 -0.02834688
000050 08 1e 5f 3d a9 22 ff 3d 39 a1 1d be 52 cd df 3c
       0.054472 0.12457783 -0.15393533 0.027319584
000060 f0 f2 e8 3c f1 6f 8a 3e 5a e7 84 be a1 df 3f bc
       0.028436154 0.2703853 -0.25957757 -0.011711032
000070 62 42 0b be 64 80 0e bf dd d3 17 be c2 47 ca bc
       -0.13599542 -0.5566466 -0.14826913 -0.02469242
000080 dc ca 7d 3d 26 d8 8e be 6a 19 12 3e d4 f5 be bc
       0.06196104 -0.27899283 0.14267507 -0.02331058
000090 61 11 18 3f 92 17 1a 3e 33 9b e3 3d d3 26 df bc
       0.5940152 0.15048054 0.11113586 -0.027240193
0000a0 5c 35 0d 3e 44 4b 25 bd 5b fa b2 bc f0 95 97 bd
       0.13789886 -0.040354982 -0.021847894 -0.07401645
0000b0 45 7c ec 3d 3b 8d 56 3e fd a0 ea 3d 4b 8e 21 3e
       0.1154714 0.20952313 0.11456487 0.15776937
0000c0 b4 c7 0b bf f8 71 4f 3e 96 7a d2 3e f5 cd bc 3e
       -0.546016 0.2025832 0.4110915 0.36875883
0000d0 bc a0 4d be f8 d7 a2 3d 0b d6 b9 3e bb e9 61 3e
       -0.20080847 0.07951349 0.36296114 0.22061817
0000e0 19 42 56 3e 8d 6c 2b be a3 73 0f bf d1 a2 6a 3e
       0.20923652 -0.16740628 -0.5603582 0.22913672
0000f0 54 ba 4f 3e 62 48 27 be fe c6 2f be fc ae 53 bc
       0.20285922 -0.16336206 -0.17165753 -0.0129201375
000100 6f 97 b9 be b6 d5 00 be 60 e8 7c 3e 5f ac 8c be
       -0.36248347 -0.12581524 0.24698019 -0.2747526
000110 f9 34 d7 bd c5 e2 a9 3d b0 36 03 bc 1f 0e 42 be
       -0.105081506 0.08295206 -0.008008644 -0.189507
000120 3c b7 8c be 01 52 5c 3e fd cf a3 be f5 5f 8e 3e
       -0.27483547 0.21515657 -0.3199462 0.27807584
000130 31 11 8c 3e 71 5f 4a 3d 34 fb fe bd 86 26 82 bd
       0.27356866 0.049407426 -0.12450257 -0.06355004
000140 ec 48 25 be f5 28 a2 bd 4b c3 23 be 42 a9 ca be
       -0.16141099 -0.07917968 -0.15992467 -0.39582258
000150 ac 1d 15 bd 12 83 53 be dd 07 20 3d 3b 29 88 bd
       -0.03640525 -0.20655468 0.03907 -0.06648489
000160 93 b3 e9 3d 1b b4 bd be d4 f2 7c be 1a f6 f6 be
       0.11411204 -0.37051472 -0.24702007 -0.48234636
000170 72 24 60 3d f6 f0 09 3d 44 0d 6d be f1 6d bc 3e
       0.054722257 0.033677064 -0.23149592 0.3680263
000180 d3 80 fc 3c 27 cc dc be e4 4a 4f be dc f1 be bd
       0.030823147 -0.43124506 -0.20243412 -0.09323475
000190 20 d4 1a be d9 6a 38 bd a2 35 c5 be c3 d3 69 3c
       -0.15119982 -0.045023773 -0.3851748 0.014271679
0001a0 60 9f b7 be 3c f5 11 3e e8 57 a7 3e 45 06 89 bd
       -0.3586378 0.14253706 0.32684255 -0.06690649
0001b0 ce 41 50 be e9 40 09 bd 6b 31 68 3e f8 48 c3 3d
       -0.20337602 -0.03350917 0.22675101 0.09535402
0001c0 1e ef 6a be 5b 7d ac 3e 99 40 f9 be 3b ff af bc
       -0.22942778 0.3368939 -0.48682097 -0.021484008
0001d0 77 56 3e be b2 53 d8 3d 35 b1 bb bc 5d db d2 bd
       -0.18587671 0.105628386 -0.022911647 -0.102957465
0001e0 f3 bc d9 3d f2 0e e5 bd 37 a0 1a 3e 40 2b 1a be
       0.10631742 -0.11184491 0.1510018 -0.15055561
0001f0 07 2c 84 3d 23 63 e1 be e0 33 9f be 4a 1b 20 bf
       0.0645371 -0.44020948 -0.31094265 -0.6254164
000200 61 76 22 3f 45 19 1f bf 5a 6e 6d 3e 1b 14 9f be
       0.6346188 -0.62147933 0.23186627 -0.31070027
000210 f1 a9 89 3b 1c 93 51 be 94 ab b8 be fe e5 9b bc
       0.004201167 -0.20466274 -0.36068404 -0.019030567
000220 d0 b0 0e 3f ce 4d ec 3e 75 06 39 bd d3 b7 06 3f
       0.55738544 0.4615311 -0.045172174 0.52624243
000230 1a 4a cf 3e 29 72 9a bd 25 d4 eb 3c 50 b4 96 3e
       0.40486223 -0.075413056 0.028787682 0.29434443
000240 ab b1 15 3d 9b f4 50 3d 65 43 96 3e 85 33 eb bd
       0.03654639 0.051014524 0.29348293 -0.11484436
000250 b8 8c a1 3d ad ab 64 be ae e6 8f bd c9 e5 ce 3e
       0.07888168 -0.22331114 -0.070264205 0.40409687
000260 4d c0 0f bd b2 ee 1a be b3 00 76 be 3c 79 fd 3c
       -0.0350955 -0.15130118 -0.24023704 0.030941598
000270 43 e8 9e 3d 2d b5 af 3d 02 6c 2e be 13 cd c7 be
       0.07759144 0.085794784 -0.17033389 -0.39023647
000280 09 57 d9 bd a4 31 3b be 85 0b 99 3d e4 09 9a be
       -0.10612304 -0.18280655 0.074729 -0.3008567
000290 4d 8a 50 bd ab a9 35 3e eb e5 7f be d7 3b e8 3d
       -0.050913144 0.17740504 -0.2499005 0.113395385
0002a0 83 ee 35 be 13 5d 4a be d7 fe 01 3e bd 31 75 be
       -0.17766766 -0.19762067 0.1269487 -0.23944755
0002b0 05 60 8b 3e 8d f5 b6 3e 2a 32 4f be 78 ff 75 3e
       0.27221695 0.35734215 -0.2023398 0.24023235
0002c0 e5 f0 6d 3e 0e 97 69 be b9 3e 98 3e 13 3b 12 3d
       0.23236425 -0.22811529 0.29735354 0.03570087
0002d0 d9 4e e5 be 02 2b 54 be 53 b6 ec 3e 0a 5b 57 bc
       -0.44786718 -0.20719531 0.46232852 -0.013144264
0002e0 9d dd a0 3e 9f b7 2d be d8 f4 06 3e e7 d8 bb be
       0.31419078 -0.16964577 0.13179338 -0.3668892
0002f0 34 63 df bd ea a5 d8 be 42 6f 6e 3f fa bf 12 3e
       -0.10907593 -0.42314082 0.93138516 0.14331046
000300 a8 6b ef 3e 2d e1 3f be 79 db 2a 3d 05 c7 e8 be
       0.46761823 -0.18738241 0.04171321 -0.4546434
000310 b9 9e 29 be c8 b6 be 3e c0 38 a6 be 5e 5f 85 be
       -0.16564454 0.37248826 -0.32465172 -0.26049322
000320 28 3d bc bd 86 15 b1 3e 4c f3 eb be fe 8d ed bc
       -0.09191352 0.34586734 -0.46084058 -0.028998371
000330 ab 8b fa 3e f1 2c 0e 3f 3d e6 7c bc b1 3d 99 bd
       0.48934683 0.55537325 -0.015435752 -0.0748247
000340 c7 68 6c 3e bf 4d c7 bd 05 a6 62 3d 28 a1 8e 3e
       0.23086844 -0.09731626 0.05533411 0.27857327
000350 31 9e 28 be 10 89 aa be 51 6f a2 3d a5 d4 88 3e
       -0.16466595 -0.33307695 0.07931388 0.26724735
000360 5f 8f 24 bd ce a7 29 bc 7e 10 e0 bc 11 72 44 be
       -0.04017579 -0.010354949 -0.027351614 -0.19184138
000370 2f 83 02 3e a4 90 b2 be 5f cd 76 3e cc dc 96 3e
       0.12745355 -0.34875977 0.2410178 0.2946533
000380 75 61 e2 be df 8a 35 bf 72 4c da bd 28 59 37 be
       -0.4421498 -0.70915025 -0.10659112 -0.17905104
000390 8b 3a ca be fc e8 08 3c 61 b5 19 3e 7f 7e 0e 3e
       -0.3949779 0.008356329 0.15010597 0.13915442
0003a0 65 ea ac be ee 0d df 3d 2b bd b5 be 0b 31 18 be
       -0.3377258 0.10891329 -0.35495886 -0.14862458
0003b0 41 94 55 be a0 1e 7a be 03 ed 87 3e ff 0a 81 3b
       -0.20857336 -0.24425745 0.26548013 0.0039380784
0003c0 9e a2 e3 be 3e 45 86 be 20 d9 6a bd 3b 0b 42 bd
       -0.44460005 -0.26224703 -0.057335973 -0.04737399
0003d0 34 a3 3f 3e 57 c7 ac 3d ca 83 c1 3e 73 e8 e1 3d
       0.18714601 0.084364586 0.3779586 0.11030664
0003e0 dc 16 36 bd fb 20 5f bf 71 b6 62 3f a6 fb 18 bf
       -0.044455394 -0.871597 0.88559633 -0.59758985
0003f0 6f 04 4c 3e 3e 98 52 be 5e b5 3e be e1 d1 62 be
       0.19923566 -0.20565888 -0.18623874 -0.22150375

bias f4 [30]
000000 1b f9 75 bd 61 eb 9d 3e 00 00 00 00 00 00 00 00
       -0.06005202 0.30843642 0.0 0.0
000010 ce 67 9e 3e 00 00 00 00 88 9c f0 3e 00 00 00 00
       0.30938572 0.0 0.46994424 0.0
000020 b7 44 e4 3e b9 ea af be 03 1a 97 bd 21 09 84 be
       0.44583675 -0.34358767 -0.07378008 -0.25788215
000030 f8 a3 15 be 3c e4 f8 bd b2 63 94 be 37 01 8d be
       -0.1461333 -0.12152907 -0.2898231 -0.2753999
000040 a2 85 9a bd 62 e0 ab be 02 5b eb bc 6b a3 5d be
       -0.0754502 -0.33569628 -0.02872992 -0.2164437
000050 00 00 00 00 ae dd fd 3e 04 68 d9 3e 6f ee 91 be
       0.0 0.4958319 0.4246217 -0.28502223
000060 00 00 00 00 67 8a b1 3e 8d 37 a1 3e 2a f9 75 bd
       0.0 0.34675905 0.31487694 -0.060052074
000070 00 00 00 00 00 00 00 00
       0.0 0.0

weight f4 [2, 30]
000000 73 2d 33 be 5d 5d 61 3e 43 3b b7 bd 5c 1b ee bd
       -0.17497806 0.22008272 -0.0894685 -0.11626312
000010 48 99 3d bd b7 14 44 3d 7f a3 d5 bc 6b 17 86 bd
       -0.04628876 0.047871318 -0.026078938 -0.065474354
000020 48 15 7c 3f 69 b1 17 be 8b 22 36 bd e2 fd 8c be
       0.9846997 -0.1481377 -0.044466536 -0.27537447
000030 ff c8 c6 be cc 83 04 bd ad dc b7 be 58 e3 2a bf
       -0.38825223 -0.032352254 -0.3591055 -0.6675315
000040 32 e4 55 bc 5e 40 2b be 48 c8 d4 bb 83 89 4b bf
       -0.013054894 -0.16723773 -0.006493602 -0.795067
000050 cb 3d 98 3e 80 c2 04 3f 8c c9 85 3f 2d ad 2f bf
       0.29734644 0.51859283 1.0452132 -0.6862362
000060 4e 2a a8 be 71 78 99 3f 0b b6 99 3e ff d4 50 bd
       -0.32844776 1.1989881 0.300217 -0.05098438
000070 58 4c 70 be 97 95 9a 3d d4 a2 c6 be 70 76 72 bd
       -0.23466623 0.07548063 -0.38796103 -0.059194982
000080 b6 25 0e 3d fc ad 33 3c ee ef e1 be c5 0c cf bd
       0.034703933 0.010966774 -0.44128364 -0.101098575
000090 30 ba 02 bf 45 8b cc 3b 68 98 15 bf fe 44 2f 3e
       -0.5106535 0.006242188 -0.5843568 0.17116162
0000a0 c0 4e 8f bd 3d 59 45 3f b2 9c d8 bd b7 9d 64 3e
       -0.06997442 0.7708929 -0.10576762 0.22325788
0000b0 46 fa bd 3e 0a 0a a5 3e 3a ad 9f bd 8b 3f a6 3e
       0.37105006 0.32234222 -0.07796712 0.32470354
0000c0 32 41 f3 bd 0e 98 05 3f f5 27 ba bc a3 fb 0e bf
       -0.118776694 0.5218514 -0.022724131 -0.5585272
0000d0 5e 45 4e bf 13 44 a6 3e bf 32 2a be 21 8e 76 bf
       -0.80574596 0.32473812 -0.1662092 -0.9631062
0000e0 20 a2 90 bd 4b 8c ce be db 8f 81 be 54 61 b1 3d
       -0.07062173 -0.4034141 -0.25305066 0.08661142

bias f4 [2]
000000 63 26 a1 3e 62 26 a1 be
       0.314746 -0.31474596
