outputs/2020-06-23-13-58-20/model_best.pkl (torch_old, 18872 bytes, 6 tensors)

weight f4 [30, 1]
0	0xbe6821f7	-0.22669207
1	0xc04f80f8	-3.2422466
2	0xbdfd9c94	-0.123833805
3	0xbf5a6b9f	-0.85320467
4	0x3f7aec21	0.98016554
5	0xbe8595a5	-0.26090732
6	0x4076fb51	3.8590891
7	0xbf09c7e8	-0.5382066
8	0x403c4adc	2.942069
9	0x4001e065	2.029321
10	0xbe20a1f1	-0.15686776
11	0xbe16f3c6	-0.1474143
12	0xbf7f74fe	-0.9978789
13	0xbfa4e37c	-1.2881923
14	0x3f5055a8	0.813807
15	0x3f68f19a	0.90993655
16	0xbdc42aac	-0.095784515
17	0x3ea81ea5	0.3283588
18	0x4026d1b0	2.6065483
19	0x3faf4788	1.3693705
20	0xc00ccbfc	-2.1999502
21	0xbf2fce86	-0.68674505
22	0x3f4d80a7	0.8027443
23	0xbff43085	-1.9077307
24	0xbfa4118e	-1.2817857
25	0xbe35523c	-0.17707151
26	0xbeb88f1d	-0.36046687
27	0xbfc6ab55	-1.5521036
28	0xbffc3baa	-1.9705708
29	0x4003bade	2.0582805

bias f4 [30]
0	0x00000000	0.0
1	0x00000000	0.0
2	0x00000000	0.0
3	0x00000000	0.0
4	0xbeeb12bd	-0.45912734
5	0x00000000	0.0
6	0xbe2b0aa6	-0.16703281
7	0x00000000	0.0
8	0xbebb3ca6	-0.3656971
9	0xbf146609	-0.57968193
10	0x3f2dab37	0.6783938
11	0x00000000	0.0
12	0x00000000	0.0
13	0x00000000	0.0
14	0x3ebaa391	0.36452916
15	0xbead528e	-0.33852047
16	0x00000000	0.0
17	0x3f0442a3	0.5166418
18	0xbef6efaa	-0.48229724
19	0x3efccfd8	0.49377322
20	0x00000000	0.0
21	0x00000000	0.0
22	0xbea6e021	-0.32592872
23	0x00000000	0.0
24	0x00000000	0.0
25	0x3eeee661	0.4666014
26	0x00000000	0.0
27	0x00000000	0.0
28	0x00000000	0.0
29	0xbd20ac75	-0.039226968

weight f4 [30, 30]
0	0x3ec9ff95	0.39452806
1	0xbd738c55	-0.059460003
2	0xbdd97c65	-0.106194295
3	0xbea757eb	-0.32684264
4	0xbe269506	-0.16267785
5	0x3ec54289	0.38527325
6	0x3e1dcbec	0.15409821
7	0xbe9246bc	-0.2856959
8	0xba266743	-0.00063477847
9	0x3e1fe957	0.15616356
10	0xbe421aad	-0.18955489
11	0x3cb2c791	0.021823676
12	0x3e2c27fb	0.16812126
13	0x3d9a36bf	0.07529973
14	0xbebf780b	-0.37396273
15	0xbdbc04a7	-0.09180575
16	0xbbebdcc7	-0.0071979496
17	0x3ed47ff1	0.41503862
18	0xbe23f035	-0.160096
19	0xbce83db8	-0.028349742
20	0x3d5f1e08	0.054472
21	0x3dff22a9	0.12457783
22	0xbe1da1f5	-0.15393813
23	0x3cdfcd52	0.027319584
24	0x3ce8f2f0	0.028436154
25	0x3e8a6f94	0.27038252
26	0xbe84e75a	-0.25957757
27	0xbc3fdfa1	-0.011711032
28	0xbe0b4262	-0.13599542
29	0xbf0e8092	-0.5566493
30	0xbe17d3dd	-0.14826913
31	0xbcca47c2	-0.02469242
32	0x3d7dcadc	0.06196104
33	0xbe8ed826	-0.27899283
34	0x3df99056	0.12185733
35	0xbcbef5d4	-0.02331058
36	0x3f15f1dc	0.58572173
37	0x3e1a1792	0.15048054
38	0x3dce0607	0.100597434
39	0xbd276eb4	-0.04087706
40	0x3e308a23	0.17240195
41	0xbd254b44	-0.040354982
42	0xbcb2fa5b	-0.021847894
43	0xbd9795f0	-0.07401645
44	0x3dea3bb7	0.11437171
45	0x3e433a55	0.1906522
46	0x3deaa0fd	0.11456487
47	0x3e298187	0.16553317
48	0xbf0ec407	-0.55767864
49	0x3e4cee54	0.2001279
50	0x3ed27a96	0.4110915
51	0x3ebccdf5	0.36875883
52	0xbe6582a7	-0.22413121
53	0x3da2d7f8	0.07951349
54	0x3eb9d60b	0.36296114
55	0x3e80fb07	0.2519152
56	0x3e564219	0.20923652
57	0xbe2b6c8d	-0.16740628
58	0xbf0f73a3	-0.5603582
59	0x3e614517	0.21999012
60	0x3e4fba54	0.20285922
61	0xbe274862	-0.16336206
62	0xbe2fc6fe	-0.17165753
63	0xbc53aefc	-0.0129201375
64	0xbeb9976f	-0.36248347
65	0xbe00d5b6	-0.12581524
66	0x3e7ce860	0.24698019
67	0xbe8cac5f	-0.2747526
68	0xbdd734f9	-0.105081506
69	0x3da9e2c5	0.08295206
70	0xbc0336b0	-0.008008644
71	0xbe420e1f	-0.189507
72	0xbe8cb73c	-0.27483547
73	0x3e5c5201	0.21515657
74	0xbea3cffd	-0.3199462
75	0x3e8e5ff5	0.27807584
76	0x3e8c1131	0.27356866
77	0x3d4a5f71	0.049407426
78	0xbdfefb34	-0.12450257
79	0xbd822686	-0.06355004
80	0xbe2548ec	-0.16141099
81	0xbda228f5	-0.07917968
82	0xbe23c34b	-0.15992467
83	0xbecaa942	-0.39582258
84	0xbd151dac	-0.03640525
85	0xbe538312	-0.20655468
86	0x3d2007dd	0.03907
87	0xbd88293b	-0.06648489
88	0x3de9b393	0.11411204
89	0xbebdb41b	-0.37051472
90	0xbe7cf2d4	-0.24702007
91	0xbef6f61a	-0.48234636
92	0x3d602472	0.054722257
93	0x3d09f0f6	0.033677064
94	0xbe6d0d44	-0.23149592
95	0x3ebc6df1	0.3680263
96	0x3cfc80d3	0.030823147
97	0xbedccc27	-0.43124506
98	0xbe4f4ae4	-0.20243412
99	0xbdbef1dc	-0.09323475
100	0xbe1ad420	-0.15119982
101	0xbd386ad9	-0.045023773
102	0xbec535a2	-0.3851748
103	0x3c69d3c3	0.014271679
104	0xbeb79f60	-0.3586378
105	0x3e11f53c	0.14253706
106	0x3ea757e8	0.32684255
107	0xbd890645	-0.06690649
108	0xbe5041ce	-0.20337602
109	0xbd0940e9	-0.03350917
110	0x3e68316b	0.22675101
111	0x3dc348f8	0.09535402
112	0xbe6aef1e	-0.22942778
113	0x3eac7d5b	0.3368939
114	0xbef94099	-0.48682097
115	0xbcafff3b	-0.021484008
116	0xbe3e5677	-0.18587671
117	0x3dd853b2	0.105628386
118	0xbcbbb135	-0.022911647
119	0xbdd2db5d	-0.102957465
120	0x3dd9bcf3	0.10631742
121	0xbde50ef2	-0.11184491
122	0x3e1aa037	0.1510018
123	0xbe1a2b40	-0.15055561
124	0x3d003ac6	0.03130605
125	0xbee16323	-0.44020948
126	0xbea5f93f	-0.32416722
127	0xbf201b4a	-0.6254164
128	0x3f1e2a8b	0.61783665
129	0xbf24a808	-0.64318895
130	0x3e92df15	0.28685823
131	0xbe9f141b	-0.31070027
132	0x3b89a9f1	0.004201167
133	0xbe51931c	-0.20466274
134	0xbeb9a1fb	-0.36256394
135	0xbd495c8f	-0.049160536
136	0x3f0eb0d0	0.55738544
137	0x3ef2829e	0.47365278
138	0xbd8289ae	-0.063739166
139	0x3f05afdd	0.5222147
140	0x3ecf4a1a	0.40486223
141	0xbd9a7229	-0.075413056
142	0xbc0bb945	-0.008528058
143	0x3e96b450	0.29434443
144	0x3d15b1ab	0.03654639
145	0x3dcfee47	0.1015287
146	0x3e964365	0.29348293
147	0xbdeb3385	-0.11484436
148	0x3da18cb8	0.07888168
149	0xbe73a54d	-0.23793526
150	0xbd8fe6ae	-0.070264205
151	0x3ecee5c9	0.40409687
152	0xbd0fc04d	-0.0350955
153	0xbe1aeeb2	-0.15130118
154	0xbe7600b3	-0.24023704
155	0x3cfd793c	0.030941598
156	0x3d9ee843	0.07759144
157	0x3dafb52d	0.085794784
158	0xbe2e6c02	-0.17033389
159	0xbec7cd13	-0.39023647
160	0xbdd95709	-0.10612304
161	0xbe3b31a4	-0.18280655
162	0x3d990b85	0.074729
163	0xbe9a09e4	-0.3008567
164	0xbd508a4d	-0.050913144
165	0x3e35a9ab	0.17740504
166	0xbe7fe5eb	-0.2499005
167	0x3de83bd7	0.113395385
168	0xbe35ee83	-0.17766766
169	0xbe4a5d13	-0.19762067
170	0x3e01fed7	0.1269487
171	0xbe7531bd	-0.23944755
172	0x3e8b6005	0.27221695
173	0x3eb6f58d	0.35734215
174	0xbe4f322a	-0.2023398
175	0x3e75ff78	0.24023235
176	0x3e6df0e5	0.23236425
177	0xbe69970e	-0.22811529
178	0x3e983eb9	0.29735354
179	0x3d123b13	0.03570087
180	0xbee54ed9	-0.44786718
181	0xbe542b02	-0.20719531
182	0x3eecb653	0.46232852
183	0xbc575b0a	-0.013144264
184	0x3e29f00c	0.16595477
185	0xbe2db79f	-0.16964577
186	0x3db88f24	0.09011677
187	0xbebbd8e7	-0.3668892
188	0xbe2d78e0	-0.16940641
189	0xbf037184	-0.51345086
190	0x3f925911	1.1433431
191	0x3e12bffa	0.14331046
192	0x3eef6ba8	0.46761823
193	0xbe3fe12d	-0.18738241
194	0x3d82edf4	0.06393042
195	0xbf1577c2	-0.5838586
196	0xbe299eb9	-0.16564454
197	0x3eed87d8	0.46392703
198	0xbecaa923	-0.39582166
199	0xbe7c65fa	-0.24648276
200	0xbdbc3d28	-0.09191352
201	0x3eb11586	0.34586734
202	0xbf1e4514	-0.61824155
203	0xbced8dfe	-0.028998371
204	0x3efa8bab	0.48934683
205	0x3f48951e	0.78352535
206	0xbc7ce63d	-0.015435752
207	0xbd993db1	-0.0748247
208	0x3e6c68c7	0.23086844
209	0xbe0fb31e	-0.14033172
210	0x3d62a605	0.05533411
211	0x3e8ea128	0.27857327
212	0xbe289e31	-0.16466595
213	0xbeaa8910	-0.33307695
214	0x3da26f51	0.07931388
215	0x3e88d4a5	0.26724735
216	0xbd248f5f	-0.04017579
217	0xbc29a7ce	-0.010354949
218	0xbce0107e	-0.027351614
219	0xbe447211	-0.19184138
220	0x3e02832f	0.12745355
221	0xbeb290a4	-0.34875977
222	0x3e76cd5f	0.2410178
223	0x3e96dccc	0.2946533
224	0xbee26175	-0.4421498
225	0xbf358adf	-0.70915025
226	0xbdda4c72	-0.10659112
227	0xbe375928	-0.17905104
228	0xbeca3a8b	-0.3949779
229	0x3c08e8fc	0.008356329
230	0x3e19b561	0.15010597
231	0x3e0e7e7f	0.13915442
232	0xbeacea65	-0.3377258
233	0x3ddf0dee	0.10891329
234	0xbeb5bd2b	-0.35495886
235	0xbe18310b	-0.14862458
236	0xbe559441	-0.20857336
237	0xbe7a1ea0	-0.24425745
238	0x3e87ed03	0.26548013
239	0x3b810aff	0.0039380784
240	0xbee3a29e	-0.44460005
241	0xbe86453e	-0.26224703
242	0xbd6ad920	-0.057335973
243	0xbd420b3b	-0.04737399
244	0xbcc96e6f	-0.024588792
245	0x3dacc757	0.084364586
246	0x3e9c0c1f	0.30477998
247	0x3de1e873	0.11030664
248	0xbe111b39	-0.14170541
249	0xbf8099ae	-1.0046899
250	0x3f8d7bc9	1.1053401
251	0xbf18fba6	-0.59758985
252	0x3e4c046f	0.19923566
253	0xbe52983e	-0.20565888
254	0xbe413fa1	-0.18871929
255	0xbed297ca	-0.4113143

bias f4 [30]
0	0xbd75fc16	-0.06005486
1	0x3ea04c19	0.31308058
2	0x00000000	0.0
3	0x00000000	0.0
4	0x3ea2322f	0.31678912
5	0x00000000	0.0
6	0x3f0b67e2	0.5445539
7	0x00000000	0.0
8	0x3f0e7bb7	0.55657524
9	0xbeb68069	-0.35644844
10	0xbd971de5	-0.07378749
11	0xbe898dbd	-0.2686595
12	0xbe15aa1a	-0.1461567
13	0xbdf8edaf	-0.121547095
14	0xbe9b8112	-0.3037191
15	0xbe925425	-0.28579822
16	0xbd9a8d6a	-0.07546504
17	0xbeba61ad	-0.36402646
18	0xbceb5d3b	-0.02873098
19	0xbe6b2046	-0.2296153
20	0x00000000	0.0
21	0x3f0c7712	0.54869187
22	0x3f13bec3	0.57712954
23	0xbe95e0de	-0.29273123
24	0x00000000	0.0
25	0x3eb8363c	0.35978878
26	0x3ea3fd2d	0.32029095
27	0xbd75cc53	-0.060009312
28	0x00000000	0.0
29	0x00000000	0.0

weight f4 [2, 30]
0	0xbe332e2f	-0.17498086
1	0x3e601c9e	0.21885917
2	0xbdb73b43	-0.0894685
3	0xbdee1b5c	-0.11626312
4	0xbcb8f3ca	-0.022577185
5	0x3d4414b7	0.047871318
6	0x3d44dabb	0.04806016
7	0xbd86176b	-0.065474354
8	0x3fb0426d	1.3770272
9	0xbe3225c6	-0.17397222
10	0xbd3609ae	-0.044442825
11	0xbea91c98	-0.33029628
12	0xbec6c64e	-0.3882317
13	0xbd047464	-0.03233756
14	0xbed97cf7	-0.42478153
15	0xbf395f79	-0.72411305
16	0xbc55b0ca	-0.013042638
17	0xbe6b8405	-0.2299958
18	0xbbd4e52a	-0.006497045
19	0xbf5f060c	-0.871186
20	0x3e983dcb	0.29734644
21	0x3f20091f	0.6251392
22	0x3fc13010	1.5092793
23	0xbf3862cc	-0.7202575
24	0xbea82a4e	-0.32844776
25	0x3fa57119	1.292514
26	0x3e9ad5d5	0.30241266
27	0xbd50d74e	-0.05098658
28	0xbe704c58	-0.23466623
29	0x3d9a9597	0.07548063
30	0xbec6a277	-0.38795826
31	0xbd6d73a0	-0.057971597
32	0x3d0e25b6	0.034703933
33	0x3c33adfc	0.010966774
34	0xbeee13ed	-0.46499577
35	0xbdcf0cc5	-0.101098575
36	0xbf15b513	-0.5847942
37	0x3bcc8b45	0.006242188
38	0xbf7a0894	-0.9766934
39	0x3e49b97b	0.19699661
40	0xbd8f5d03	-0.070001625
41	0x3f5368a8	0.8258157
42	0xbdd8a77e	-0.105788216
43	0x3e6499e2	0.22324327
44	0x3edf9aad	0.43672696
45	0x3ec20263	0.37892446
46	0xbd9fb3a5	-0.07797936
47	0x3ec6618b	0.38746294
48	0xbdf33f66	-0.11877327
49	0x3f1914b3	0.5979721
50	0xbcba27f5	-0.022724131
51	0xbf2a4263	-0.6650755
52	0xbfa28979	-1.2698203
53	0x3eb7af4c	0.35875928
54	0xbe2a32bf	-0.1662092
55	0xbf873fce	-1.0566347
56	0xbd95214c	-0.072817415
57	0xbece8bf2	-0.40341145
58	0xbe818fdb	-0.25305066
59	0x3db16154	0.08661142

bias f4 [2]
0	0x3ea38df5	0.31944242
1	0xbea38df5	-0.31944242
